dyros_bolt_controller/policy/policy_1.pt (torch, 732552 bytes, 8 tensors)

weight f4 [512, 29]
00000000: 317f ed3c 186c 8f3e 6c13 ab3d f96b da3d
00000010: 4230 213e 4f42 2cbe 9e32 933c c958 aabd
00000020: 7766 083e ecfb 48bd b53a 62bd f053 af3d
00000030: 161e 6a3e 763a f43d 7773 92be c11d fabd
00000040: 1b5d 633e a7bc 403e c090 e7be b3d5 a8bd
00000050: abce 083e 0ac3 27bf 48ef 543d 1d19 b03c
00000060: 4a9a 1d3b 2f36 6f3d 94d8 ca3c 77a2 ac3c
00000070: f7ae c3bd 5fc7 2fbe 962e 293f 910b 86be
00000080: bde5 443d fc1c 8bbe 73a8 41be 8534 17be
00000090: f073 f73e 66d4 133d 0404 2bbd f3fe 1b3e
000000a0: 96ba 89bc 96a4 31be 4253 a1be 91b5 47bc
000000b0: 14e6 81bd 890c 303d 3987 c8bd e25e c3bc
000000c0: 10ae cfbd f919 99be 4c5d 313d 412c 35be
000000d0: d16a 553c 30ff aabc 9d81 3a3d 4358 4a3c
000000e0: 4edd d63c 1f5d 063d 4f22 febe 7f58 05bf
000000f0: 0af4 dfbb 865e ff3b fc98 16be f5a9 01be
00000100: 868b 9bbe 7e7e 4ebd 1315 81be 0e1a 79bd
00000110: 5a41 c83d e71e 4c3e 6e79 b1be c7d2 b8be
00000120: 9202 8e3e df59 1e3d 2df2 f0bd 1c37 d23d
00000130: e4ed c2be 1953 143e 08a6 fe39 b97e 18be
00000140: 32e3 d43c e374 abbc 9fcb f4bb 1ccf 0dbc
00000150: 9668 74bd ed8d dc3c 91d0 873c b4bd e5bc
00000160: b1d5 a23e 82c3 38be 98d1 8e3d 8782 30be
00000170: 7436 4abe 347e 84be 84e2 82be 8724 67bd
00000180: f212 47be 9f8a aabd efbf a7be 34bc 813e
00000190: f119 a3bd b0d4 423e 1df5 19be e31e 19be
000001a0: c88f b53e b2d9 bebe 5215 7e3d baf4 243e
000001b0: ec37 e83c b7da 213e 4858 3d3d f0ba fc3d
000001c0: 2862 7dbd 1fef a53c 595f 63bd 0bf8 89be
000001d0: c194 afbc f6ea 23bf f0c1 133c 09b9 0e3e
000001e0: 681f 273b ead9 f5bd e892 233e 8227 5ebe
000001f0: c428 2abe 47a6 a63d 0f40 013e 700c 943d
00000200: 0250 d4bd ee50 a8bd fb07 963e a54d fbbd
00000210: e085 56be 0842 22be 3f87 723e cc05 2abd
00000220: 5d51 013f 55d0 743e f3db a3bd a40a 12bc
00000230: 0eb4 18bc 0b51 eebc 6dd4 983c 1635 3cbd
00000240: 1954 06be 2fd6 25be c556 39bf d39d 263e
00000250: 9e13 ffbd 915e 1dbe 8784 413e 7d68 b73c
00000260: c752 c9bd e698 973d 47aa 15bd 7fcd 463d
00000270: 0352 953e 166a 8bbe 7da6 f7bc db6c 2ebd
00000280: 2ed5 babd e74f 65bd 99bc 1bbf e9a1 023e
00000290: 02d0 283e 59bd cc3e 54ad a9be f9fb 3e3e
000002a0: 34cb 1f3b 9751 fabb e473 dabc 1946 fe3c
000002b0: 9792 203d 1063 87bd fd5d 09bf ec63 8cbe
000002c0: a9fa 75be 6a0e a9bd 0765 4ebe 7835 e0bb
000002d0: 8728 afbd 6588 66be 6e14 51be 5916 263e
000002e0: b93b 833c afcd 83be 827f 57be f2b9 51be
000002f0: 560c 58bd 4093 f83b d542 81be 7c3f c4be
00000300: 32ad 6e3e 1aff 16be e1c0 8e3c 033a 093e
00000310: 3401 1ebd c568 9fba 90c9 1c3b 138a 8f3d
00000320: 6144 a53c 1c3b 3c3a b41f ef3c 83d9 82be
00000330: ebbe a73d 65c0 173e 3c10 143c e11b a8be
00000340: 2f7b 373e b6be 6dbe edc2 643d cccf 27be
00000350: 6df2 ef3d a1b3 1c3e 8f0b 3f3e f4a5 923e
00000360: a818 a53e e4db 9f3e f8a0 2bbe 09e3 6dbe
00000370: c112 1a3e 3fd5 4abd a486 023e 1974 a1bd
00000380: 5db3 3a3e 2870 c83d 1227 2a3d 5c77 8e3d
00000390: 5a5d a1bd 69f3 ec3c d11d b8bc f9c5 80bd
000003a0: bcf3 f13d 2bec 3a3f 3267 8cbe 20e7 4cbd
000003b0: 1e0a 5dbe 454c 2d3d 2781 763e 8127 f03d
000003c0: dea6 34ba 66c2 dbbd ea43 ac3d cbc6 8dbe
000003d0: 8e0a ab3d 70aa 813d fd09 a7be a390 ce3e
000003e0: 1c05 853e 6939 b5be 8a0d 81be f606 34bd
000003f0: a9a4 e7bd c81c d63c f2aa f1bd 2593 ea3c
0.028991314 0.28012156 0.08353314 0.106651254 0.15741065 -0.1682217 0.017968472 -0.08317716
0.13320337 -0.049068376 -0.05523177 0.08560932 0.2286304 0.11925213 -0.28603718 -0.12212706
0.22203486 0.18821965 -0.45227623 -0.08243885 0.13360088 -0.6553198 0.05198601 0.02149635
0.0024048262 0.058401283 0.024761476 0.021073563 -0.09554856 -0.17165898 0.6608671 -0.261807
0.048070658 -0.2717055 -0.18911915 -0.14766128 0.4833064 0.03609123 -0.041751876 0.15233974
-0.016812604 -0.17347941 -0.31508833 -0.012189285 -0.06342712 0.042980704 -0.09791417 -0.023848955
-0.10140622 -0.29902628 0.043301865 -0.17692663 0.013025955 -0.020873636 0.045533765 0.012350145
0.026228573 0.03280365 -0.4963555 -0.5208816 -0.0068345116 0.0077932505 -0.14706796 -0.1266249
-0.30379885 -0.0504136 -0.2521139 -0.060815863 0.0977809 0.19933663 -0.34662956 -0.3609831
0.27736336 0.038659927 -0.11764941 0.102644175 -0.3807212 0.14484824 0.00048570358 -0.14892091
0.025987241 -0.02092976 -0.0074705626 -0.008655336 -0.059670053 0.026923144 0.016578944 -0.028044559
0.3180366 -0.1804333 0.069735706 -0.17237292 -0.19747335 -0.25877535 -0.25563443 -0.05643132
-0.19440821 -0.08327221 -0.3276362 0.253389 -0.07963932 0.19026446 -0.1503491 -0.14953189
0.3546126 -0.37275463 0.06203205 0.16108981 0.028346978 0.1580609 0.04622677 0.12340343
-0.061861187 0.020255623 -0.055510852 -0.26947054 -0.021433236 -0.64030397 0.009018406 0.13937773
0.0025500897 -0.120044544 0.15974009 -0.21694759 -0.16617113 0.08137184 0.12622093 0.07228935
-0.10366823 -0.08218561 0.29302964 -0.12270669 -0.20949507 -0.15845501 0.23684405 -0.041509435
0.50514776 0.23907597 -0.08000936 -0.00891367 -0.009320272 -0.029091379 0.01865598 -0.045949064
-0.13118018 -0.16194986 -0.72398025 0.16271143 -0.124549136 -0.15368105 0.18898211 0.022388691
-0.09830242 0.0740221 -0.036539342 0.04853582 0.29164132 -0.27229375 -0.030230755 -0.04258428
-0.09122692 -0.055984404 -0.6083465 0.12757076 0.16485599 0.3998821 -0.3314005 0.18650807
0.0024382593 -0.007639121 -0.02666659 0.031039285 0.0392023 -0.066106915 -0.5365904 -0.27419984
-0.240214 -0.082547024 -0.20155726 -0.0068423115 -0.08552652 -0.22512968 -0.2041795 0.16219462
0.016019689 -0.25742862 -0.21044734 -0.20481089 -0.05274614 0.007585913 -0.252463 -0.38329685
0.23308256 -0.14745751 0.017425956 0.13401036 -0.038575366 -0.0012161961 0.0023923852 0.070087574
0.020174207 0.0007180439 0.029189922 -0.25556573 0.081907116 0.14819486 0.009037074 -0.3283377
0.17918085 -0.23217282 0.05584996 -0.16387862 0.11716161 0.15302898 0.18656753 0.28642237
0.32245374 0.3122245 -0.16760623 -0.23231138 0.15046217 -0.049519774 0.12746674 -0.07883472
0.18232484 0.09787017 0.041541167 0.0695636 -0.078791335 0.02892466 -0.022475155 -0.0628776
0.11814067 0.73016614 -0.27422482 -0.050025105 -0.2158589 0.042309064 0.24072705 0.11726285
-0.000689132 -0.10730438 0.08411391 -0.2769073 0.083516225 0.063313365 -0.32624808 0.40344724
0.2598046 -0.35395363 -0.25205642 -0.04395195 -0.11310703 0.02613677 -0.11800183 0.028634617

bias f4 [512]
00000000: b79e 06bd ec0f b53d 717b 883d 627a 27be
00000010: bef0 33be 840b b43c 83dc babd 8561 c83d
00000020: 374b 0b3e 5955 abbd cb80 47bd 60e5 a6bd
00000030: 6bb7 ad3d a58a f3bd 4945 433e fd71 3fbd
00000040: 5382 46bd f487 7ebd 8dae b3bc 82db 063e
00000050: bba2 2dbe 2e34 963d 3279 b4bd 588f a4bd
00000060: 110b b8bd c085 b33d 8333 00bd 92ff d2bd
00000070: e512 29be e4fd 1dbe 5922 dcbc 6ba2 3b3e
00000080: 54cd c5bd 15b4 1fbd f323 fc3d 9fc5 79bd
00000090: b9a6 b63d cbb4 d13d d4a7 2bbe 0f7e babd
000000a0: 6bdd 9e3d c092 a03d 644c 0a3e 8c0e 933d
000000b0: 2571 733d 681f 69bc 665d dd3d bb22 bbbc
000000c0: 837d 90bd 2fc2 113e d171 39bd e74f 0b3d
000000d0: 9ae6 35be 2e93 9b3d 0705 2dbd 946f bfbb
000000e0: 47d8 4cbd e14d acbd 9a80 c23d df43 0cbe
000000f0: f1e8 37bd 0034 8f3d b085 073e 3532 33bd
00000100: 28c3 54bd 1459 e8bc e06b 5038 3ab2 443d
00000110: f1b4 303e aca9 043e f4cb 15be 4ce7 08be
00000120: f3cb 9b3c 6aee 2fbc bfc2 a1b9 9c67 eebd
00000130: 4ea6 dbbd e907 863d d7d9 1e3e 9685 0f3e
00000140: 1242 78bd e1cb 753d 1b8a 2e3e bd9d 3fbd
00000150: e59f 853c a812 86bd ea57 2c39 b407 f33c
00000160: 8e45 9dbd 1835 033e 8c0d 713d 76e3 bb3b
00000170: dd92 13be 7790 0cbc 00cd 1fbe 8ca2 11be
00000180: 3c1b 353e 77cc 8bbd 0cec 4bbd 6513 9dbc
00000190: 4838 4abe 6e44 913c a17c f5bd 2462 a7bd
000001a0: 01ca 35b9 7a8c c7bd a807 0b3d d658 22be
000001b0: a56d a7bd 5fe5 e23d 8a6f 203e 134b 1b3e
000001c0: d7bb 28be e48d bcbd 0126 eb3d c157 29be
000001d0: 1e29 9e3d 2cc5 3dbe 6a1c babd f479 fbbc
000001e0: d487 a7bd 26be 0a3e 1a11 2bbe 7985 4abd
000001f0: 01e4 af3d 973e 973d 932b d3bd e21f 19be
00000200: ebaf 8a3d 98d4 e7bd 598f 563d e943 4a3d
00000210: 744b c1bd 4327 d33c 20fb 88bc 77a1 8cba
00000220: 1e10 a73d e1aa c23b c304 c4bb bbd2 f2bd
00000230: 08a2 93bd c87f ddbd 7278 613e ca59 8a3d
00000240: 984f 423d 6327 97bd 419f d93c 402e ffbd
00000250: 7f0c 3f3e 20b5 c03c 2243 1c3d 52d4 11be
00000260: 9257 83bd cb7a 5bbe 3222 ed3c d549 d73d
00000270: ac06 d93d ac6f 80bd 8b70 2abd c032 c1bd
00000280: 5596 133e c786 133e 6c69 24be c166 06be
00000290: c21e b8bd 8d3e f63c 3f27 1fbe e8aa 3abe
000002a0: 3626 843c 59c0 4ebc b80c db3d 82dc 60bd
000002b0: 5c19 a4bc 76f6 113e cf8f fc3c edd9 1ebe
000002c0: fcca 43bd ca3d 70bd 797e ab3d c0b7 0ebe
000002d0: a961 863d 4240 bebd 12d7 cfbb d51f 03be
000002e0: 4663 fdbd 7db9 82bd 68a6 8dba 7c3d cd3d
000002f0: 65cf 8ebd e16a 2dbd 9c2a b7bd bfc1 a93b
00000300: 76a3 4abd 891e 983d eb2b 22be 9abf 773d
00000310: d314 a8bc a0e4 abbd 6c1d 82bb 169a e03c
00000320: 0029 2ebd ca26 e9bd b9bb f73d 91db 08be
00000330: 831c cebd 0208 8f3d 73cd 073e 6f81 4bbe
00000340: 8c2a 81bd 7826 ee3d b99a 06be 008b 0abe
00000350: a018 84bc c57d 873d b554 f4bc 8bc7 12bd
00000360: 411c 0d3e e76a 10be 6785 a6bc 6ae9 c2bd
00000370: c2ed 243e 52f8 47bd 12be d2bc 0f67 0f3e
00000380: 24da 3fbd 00c7 1d3d 0fdc 083d a672 b53b
00000390: 2d76 ab3d a793 37be f51b 6b3d fa7e 983d
000003a0: 1819 0f3e 270e 43bd fc64 913d 2ec9 18be
000003b0: 6135 63bc 3291 713d 3924 40be 4e45 32be
000003c0: a783 613e 8ad6 d6bc 48b9 6d3c 47f4 683e
000003d0: f29f 063e c86e 3f3e a50d f83d d48d 89bc
000003e0: b60d 89bd 699d d6bc f925 efbc 0072 27bd
000003f0: 6752 d43d fc6a 1cbe 1de9 b1bd 4c88 8a3d
-0.032866206 0.088409275 0.066641696 -0.16355279 -0.17572305 0.021978147 -0.091240905 0.097842254
0.13602911 -0.08365888 -0.04870681 -0.081492186 0.0848225 -0.11891679 0.19069399 -0.046739567
-0.04846413 -0.062141374 -0.021933818 0.13169673 -0.16956608 0.07334171 -0.08812179 -0.08035153
-0.08986486 0.08765745 -0.031299125 -0.103026524 -0.16511114 -0.15428883 -0.026871847 0.18323676
-0.09658304 -0.0389901 0.12311544 -0.06097948 0.089185186 0.10239562 -0.1676324 -0.09106075
0.07757076 0.0784049 0.13505703 0.07180509 0.059434075 -0.014228679 0.1080883 -0.02284371
-0.070551895 0.14234231 -0.04527456 0.034011748 -0.17763749 0.07596432 -0.042241123 -0.0058421586
-0.050010946 -0.08413292 0.09497185 -0.13697766 -0.044899885 0.0699234 0.13234591 -0.043749053
-0.051943928 -0.028362788 4.969153e-05 0.048021533 0.17256524 0.1295535 -0.14628583 -0.13369483
0.019018149 -0.010737995 -0.0003085341 -0.11640856 -0.107250795 0.065444775 0.15512787 0.14015803
-0.060609885 0.060008887 0.1704487 -0.04678129 0.016311595 -0.06546527 0.00016435949 0.02966676
-0.07679282 0.12813222 0.05885081 0.0057339026 -0.14411493 -0.008579365 -0.15605545 -0.14222163
0.1768617 -0.06826108 -0.04978566 -0.019174287 -0.19748032 0.017732825 -0.11986662 -0.08173016
-0.00017336757 -0.09743591 0.03394285 -0.158542 -0.0817521 0.11078905 0.15667549 0.15165357
-0.16477905 -0.09206751 0.11481858 -0.16537382 0.07722686 -0.18532246 -0.09087451 -0.0306978
-0.08180204 0.13549098 -0.16705742 -0.049443696 0.0858841 0.07384985 -0.103110455 -0.14953569
0.06771835 -0.11319846 0.0523828 0.04938117 -0.0943822 0.025775557 -0.016721308 -0.0010729273
0.08157371 0.0059407805 -0.005982013 -0.118566 -0.072086394 -0.10815388 0.22018602 0.06755407
0.047439188 -0.07380559 0.026565196 -0.12459993 0.1865711 0.023523867 0.03814996 -0.1424115
-0.06413187 -0.2143356 0.02894697 0.10512129 0.10596976 -0.062713 -0.041611236 -0.09433508
0.14412816 0.14406882 -0.1605584 -0.13125135 -0.089902416 0.030059123 -0.15542315 -0.18229258
0.016131502 -0.012619101 0.10695785 -0.054897793 -0.020031624 0.14254174 0.030830292 -0.1551282
-0.047801003 -0.058652677 0.08373732 -0.13937283 0.06561596 -0.092896 -0.006342777 -0.12805112
-0.123724505 -0.06383035 -0.0010807039 0.10021493 -0.06973151 -0.042338256 -0.08943674 0.005180567
-0.049472295 0.07427699 -0.15837066 0.06048546 -0.020517742 -0.08393216 -0.0039707925 0.027417224
-0.04251957 -0.113843516 0.12096352 -0.13365008 -0.10064032 0.06983949 0.13261966 -0.19873594
-0.06306943 0.11628431 -0.1314496 -0.13529587 -0.016125023 0.066157855 -0.029825548 -0.03583483
0.1378031 -0.1410328 -0.020327283 -0.095171764 0.16106322 -0.0488208 -0.025725398 0.14004157
-0.046838894 0.03851986 0.03341299 0.005537349 0.083721496 -0.17927419 0.05739971 0.07446094
0.13974416 -0.04762092 0.07099339 -0.14920494 -0.013867707 0.05897636 -0.18763818 -0.1740925
0.22022878 -0.026225347 0.0145095065 0.22749434 0.13146952 0.18694603 0.121119775 -0.016791262
-0.06692068 -0.026198106 -0.029192911 -0.040880203 0.103672795 -0.15275186 -0.08687041 0.06764278

weight f4 [256, 512]
00000000: dfd9 36bd 43ec 8c3c 9fb6 813d 9ac4 8c3d
00000010: cab4 9c3d 9b7b ee3c cea3 5f3c 47a7 b539
00000020: eecd 623c dfeb f63a 8c2e 63bd 7784 4fbd
00000030: 301e 673d 1dc0 40bd 51be a03b 14aa cfbd
00000040: 56d6 bebc 5242 3bbd 1349 bdbc bc19 d5bc
00000050: 196a 97bd d503 bb3d 5ce2 313d 3e29 b9bc
00000060: ce8d 22bd 9c71 97bd 9725 75bd 4f0a ca3d
00000070: ed37 0b3d 3a31 0cbd 040a 0d3d b810 e5bc
00000080: 6c69 af3d 2f2e b2bd c632 46bc e04b adbd
00000090: 2e84 e4bb 282e 9f3c c3bf 713d 425a 71bd
000000a0: 42a6 673d a0c7 fcbd b86f b1bd 7a43 63bd
000000b0: e0ab 613d 7791 463d e9d9 d63c c0df a1bd
000000c0: ac68 b6bd 7cb2 263c 8268 cc3d f534 fabc
000000d0: eb20 fbbd db70 9d3c a732 f63c 17f7 19be
000000e0: a4c5 8abd eec8 da3c afe0 913b 5cd0 543c
000000f0: 17d3 0ebd 8568 13bd e715 f6bc 1ba5 c63c
00000100: cc48 823d df3d 44bd 88d5 9cbb 69c9 79bb
00000110: 9b0e adbd b62e 04bb 8943 3a3d 79d0 eaba
00000120: ab27 543d bc70 c8bd 86b8 cabc 565f 273c
00000130: 161a c1bc f6ca 2c3d 948a 90bd 8faa df3d
00000140: 1c17 313d ac31 e93d ab17 6e3d a4ba 7d3d
00000150: 5d67 0a3d 29c2 ac3d d361 4cbd 4e91 343d
00000160: 89ac 10bb 25c3 79bd 61bc a2bc 0b98 afbb
00000170: 1496 38bd 95ce 933d 70e9 35bc ae8b d1bd
00000180: e145 213b 1c38 c73d 493f 11bd 27c3 90bd
00000190: 009c 493d 2530 b9bc 7f11 723d f62c 39bd
000001a0: 8214 dc3d 4ee0 0b3d c06c 21be 6cd6 a5bc
000001b0: 4ba9 613c b99d e63d c669 de37 c224 e7bd
000001c0: cf5e 9b3c 0743 a93d e60f 623c e2e9 433c
000001d0: e693 053c 9a50 403b 64d5 cd3d b4b3 9d3d
000001e0: 9e1f 21bd fc1d 6fbd ca16 813a 38ed e6bc
000001f0: b10a 32bd 59e4 8b3d db29 e83c 29e7 833c
00000200: 4972 743d 54c0 08bd 3885 aa3d 4979 cf3b
00000210: df6d 68bd 204c 9d3d 630c 5bbd e320 45bd
00000220: 3d74 403d 43ff 163d a3c4 063d 1194 9cbc
00000230: 0d88 fa3c 6128 61bc f4b6 ea3d e37f 14bc
00000240: 34d0 773d 29f5 8c3d 77c1 943d 5c32 d33b
00000250: e265 fcbc 793d 0dbd 247f a1bc 1ea2 3cbd
00000260: 9754 97bd 2ac4 b83d 4b9a 053e 5ac4 b43c
00000270: 9654 6c3d 0174 a33c 8e43 2cbc cf63 ecbc
00000280: 078d bdba 5cf7 623e f30a c03d 30ea f53b
00000290: db51 753c 7658 01bd f07f a8bb cf11 b83d
000002a0: 9665 123c 3796 10bc b645 343d f262 283b
000002b0: b948 283d c98c 383d 3f91 05bd 929e 653c
000002c0: a63e 363d e5c9 613d f4c9 4bbe 63ad 903d
000002d0: 63b1 6bbd d7e9 813c 613d 9c3c ec1f 523d
000002e0: 1320 91bd 56ab 9c3d 586d 3dbe 4936 2b3b
000002f0: 36a3 973d 399f f2bc 239d 923d bcaa 003c
00000300: 29a1 ae3d 6370 db3c 95c2 6c3d 9324 c23d
00000310: 4019 653d d830 12bd 03a2 28bd 6ddd 80bd
00000320: 249a 28bc 1343 6cbd 00b7 96bd 6122 17be
00000330: cc8d 77bc 21ab 2b3d 24e0 9cbd 721c 74bc
00000340: 01f9 153d 49d7 9a3d e496 dabd 34d9 3a3d
00000350: a6bf 81bd 7f94 b1bd 33e8 e03c ab69 4a3d
00000360: 928d ca3b efc7 133d 9190 04be c795 8b3d
00000370: d82d 1ebe 1550 5a3d 93ae 173d b95c 7b3d
00000380: 16dd cf3d f43c 30bd cd7c 8e3d 558e aa3c
00000390: 2ebe ea3c 71f1 14bd 72b8 1d3c 55b6 963b
000003a0: 5388 fa3c c64f 55bd 377c 943d ab97 033e
000003b0: 208f 89bd 7aa5 323d 19eb d73b 0308 093e
000003c0: 340f 973d 01a8 213c be59 cc3c 5d65 733d
000003d0: a7e2 35bd acdf 57bd 17e7 2bbe 4eec e93d
000003e0: e856 953d edfb 80bd 0323 32bd 9e02 bdbc
000003f0: 1903 e83c 9b49 af3c 93b3 98bd dba1 a2bd
-0.04464137 0.017202502 0.0633366 0.06873436 0.0765167 0.029111674 0.013649894 0.00034647642
0.013843043 0.0018838606 -0.055464312 -0.050663438 0.056425273 -0.047058214 0.0049055 -0.10139862
-0.023295563 -0.045717545 -0.023106134 -0.026013248 -0.073932834 0.0913159 0.043428764 -0.022602674
-0.039686017 -0.07394716 -0.0598503 0.098652475 0.03398888 -0.034226634 0.03443338 -0.027962074
0.085650295 -0.08700215 -0.012097066 -0.08461738 -0.006973765 0.019431189 0.05902077 -0.058923967
0.05655504 -0.12342763 -0.08663887 -0.055484273 0.055095553 0.04847857 0.026226955 -0.07904005
-0.08906683 0.01017439 0.09980871 -0.03054283 -0.12262138 0.019218853 0.03005345 -0.15035664
-0.06775978 0.026707139 0.004451833 0.01298913 -0.03486928 -0.03598835 -0.03003974 0.02424865
0.06361541 -0.047910567 -0.004786197 -0.0038114435 -0.084500514 -0.0020169443 0.045474563 -0.0017914913
0.051795643 -0.097871274 -0.02474619 0.010215601 -0.023572009 0.042185746 -0.07057682 0.10921203
0.04323493 0.11386427 0.05812804 0.061945572 0.03378998 0.084354706 -0.04989798 0.044083886
-0.0022075495 -0.06097712 -0.019865217 -0.005358701 -0.045065 0.07217137 -0.011103019 -0.1023172
0.0024608301 0.09727499 -0.035460744 -0.07068472 0.04922104 -0.022605965 0.059098717 -0.045208894
0.10746099 0.03414946 -0.15764141 -0.020243846 0.013773273 0.11260552 2.6513717e-05 -0.11286308
0.018966107 0.082647376 0.013797736 0.0119576175 0.0081529375 0.0029344917 0.10050467 0.07700291
-0.039336793 -0.058378205 0.0009848711 -0.028189287 -0.043467227 0.06830663 0.02834027 0.016101437
0.059679303 -0.033386543 0.08326191 0.006331597 -0.056745406 0.07680535 -0.05347861 -0.048127066
0.046985853 0.03686453 0.03290237 -0.019113572 0.030582452 -0.013742537 0.11460677 -0.009063694
0.060501292 0.06882698 0.07263463 0.0064452123 -0.0308103 -0.034482453 -0.019713946 -0.046053044
-0.07389181 0.0902179 0.1304714 0.022066284 0.057697855 0.019952776 -0.010514153 -0.028856186
-0.0014461585 0.22164673 0.093770884 0.007504724 0.014973129 -0.031578504 -0.0051422045 0.08987772
0.008935353 -0.0088248765 0.044011794 0.0025693742 0.04108498 0.04505614 -0.03260922 0.014014857
0.04449334 0.055124182 -0.19901258 0.07064321 -0.057542216 0.015858574 0.019072236 0.051299974
-0.07086196 0.07649867 -0.18498743 0.0026124886 0.07404177 -0.029616939 0.07158878 0.007853206
0.085268326 0.026786989 0.057802755 0.09479632 0.055932283 -0.035691112 -0.04117013 -0.062922336
-0.010290656 -0.057681154 -0.07359123 -0.14759208 -0.015109491 0.041911248 -0.07659939 -0.01489936
0.03661442 0.07560594 -0.10673311 0.045617297 -0.06335382 -0.086709015 0.027454471 0.04941718
0.0061814273 0.036079343 -0.12945773 0.06815677 -0.15447176 0.05329903 0.03703172 0.061367724
0.10149591 -0.04302688 0.069573976 0.020819822 0.028655138 -0.03636307 0.009626495 0.0045993724
0.030582583 -0.05207803 0.072502546 0.12850825 -0.06716752 0.043614842 0.006589305 0.13381962
0.07375947 0.009866715 0.024945136 0.05942284 -0.044405606 -0.052703544 -0.16787373 0.11422025
0.07291967 -0.06298051 -0.04349042 -0.023072537 0.02832179 0.021397403 -0.07456126 -0.07941028

bias f4 [256]
00000000: 7146 e2bc 91fd 823d b3a7 aabd b047 523c
00000010: 0267 85bd e71f 66bd 7b8b a2bd 03dc 1bbd
00000020: 76ca 27be 53c5 e23c e08e 9cbd 80c7 11bd
00000030: ec44 aebc d998 98bd 18e3 cdbd 93e8 a8bd
00000040: 5782 8cbb f9fa 98bd 0d0a 51bd fb54 aabc
00000050: 036e 6fbd 36b2 b5bd 7cb5 7cbd ab16 073d
00000060: ee46 c0bd fc65 31bd 9f3b 3dbd 3d9f dcbc
00000070: 7739 f1bc 423e 7fbe 3c8e b93b 9ea5 f8bc
00000080: 7df5 8dbd 1e9b 203d f74e 09bc 2809 79bd
00000090: 3479 f0bd 8087 bfbd 76cd 04bd fb3b 1e3c
000000a0: bc81 81bd c3b0 2abd 3609 71bc f3a2 b0bc
000000b0: 96b9 33bc 9d3d 7bbc de4b abbd 50db 98bd
000000c0: 6fb9 a0bc 1f0b bebd 9466 b4bc 1b4f 53bd
000000d0: e96c 57bd d9ef 0cbe 9346 c3bd 33ba febd
000000e0: 6335 c3bc 5bd3 4abd e44a 3ebe 38b2 0dbc
000000f0: 4e56 68ba 0000 0fbe 994e dbbd 9b69 98bd
00000100: 1596 0abe 8d29 f5bb e013 b9bd 95b1 80bd
00000110: d945 84bc b30f 84be 1cb5 b1bd dd45 8a3c
00000120: 4155 4abe 5ab0 86bd a99c 09bd 813c d5bd
00000130: ab08 b8bd 8ab9 aebd bda9 a0bd fa24 16bd
00000140: fb34 f6bc 9878 c03c 345b 62bb 886e 4abd
00000150: 0866 ddbc 9458 b6bd 7ce8 71bd 0ccf eabd
00000160: dbc1 31bd 8023 08bd bbc1 a4bc 0066 68bd
00000170: bf7f b4bd da13 d0bc 7d7c 44bd 47a4 07be
00000180: 2a22 78bc 3d1e 03bd 8dbb f03a 80f7 00bd
00000190: c7c7 90bd 37e5 91bd 6112 12be cf30 46bd
000001a0: be3c dfbd c235 2dbc 922b 613d 7d38 16bd
000001b0: b99f ddbc d477 90bc 4857 e0bc 16b7 5abd
000001c0: e592 02be 7645 0bbc 6c03 efbd 9245 05be
000001d0: 92fd 8dbd b30c 95bc 30b2 78bd 16f7 74bd
000001e0: 5f88 52be 5740 e4bd 8332 233c 3ddb cabd
000001f0: e823 2a3c 4cd0 11bd 96c8 7fbc ec34 c0bd
00000200: 668a 6cbd 4f7a 30be 4958 50bc 9ec5 9bbd
00000210: c196 2e3c 0823 c6bc 576a 07bd 8a74 bbbd
00000220: 11b2 fbbc 737e 29bc 96d4 48bc 1bab 14bd
00000230: 7ce7 8fbd 715b 26bb 31fc d9bb 5e71 d0bc
00000240: d7b3 1c3c 301a 36bd 81c1 11bd 91ac b2bd
00000250: 5133 adbc 4555 22bd c0ad 48bd 21aa 09bd
00000260: 3f9c 50bd 2f61 7ebd 639a 15be 7d73 54bd
00000270: bb01 2dbd 1526 f6ba bd8f b9bd 713c 0f3c
00000280: 2a6f 1a3d a87f 05be 1b38 38bd 9220 9f3c
00000290: 4250 edbd bdab c4bd 7946 533d 8c9f efba
000002a0: cf1c 37bc 6725 0abd 6531 b9bd 6ef8 b1bd
000002b0: 3f4b 913b 410f 12be da69 27bd dadc 1ebd
000002c0: dfcd d4bd 3fef 8cbd 8a88 ea39 f6d4 3dbd
000002d0: f5d1 06bd 7155 34bd fbf5 8fbd d66f 38bb
000002e0: bdb4 1abc 7b56 b3bc 8b3a 7dbd c562 aebd
000002f0: 10c7 7bbe df0c 89bd 62e3 dcbc 6d40 c7bc
00000300: 9fd2 70bd 7c86 94bd 7541 92bc dc26 e1bc
00000310: d772 623d aa8b 90bd cbac 99bd 2f31 6fbd
00000320: 43a9 bdbd dbd7 37bd 518b dcbd 766c 97bd
00000330: 71e2 333c 672f 2e3b c3ab 31bd de61 28bd
00000340: b1b8 c2bc f575 883c 22a8 9e3c f675 61bd
00000350: bdfd a2bd 145e 7fbd f8ce cfbc 1349 67bc
00000360: c16e 73bd f99c febc 75bb 48bc 998b d33b
00000370: 774e c1bd 26a2 b3bd e6ff 49bd f293 5dbd
00000380: bc5c b5bd 70da 4a3a 4fb8 20bc d2bf 0ebb
00000390: 4e01 043c 9451 04bd 91d5 92bd d15e 01bb
000003a0: c84d 65bd 4fc6 b9ba 8e9f 0ebc 060c a8bd
000003b0: 7e56 013d 8cd5 adbb a711 90bd c84e d8bd
000003c0: 0d2c 9fbd 8b9f 94bd 94a1 bdbd a876 023d
000003d0: 616d 3abc c865 c2bd bedf 333d 91a0 40bd
000003e0: 39e4 d8bc 6c25 6cbd 4f28 9cbd f75e 67bd
000003f0: 79de 86bd 39e7 17bb 0c54 a3bd 535e 64bd
-0.02762148 0.0639602 -0.08332767 0.012834474 -0.06513788 -0.05618277 -0.0793676 -0.038051616
-0.16385826 0.027681982 -0.07644439 -0.03559065 -0.021273099 -0.074510284 -0.1005308 -0.08247485
-0.0042879987 -0.07469744 -0.051034976 -0.020792475 -0.058454525 -0.08871882 -0.061696514 0.032980602
-0.09388529 -0.04331015 -0.046199437 -0.0269314 -0.029446347 -0.24926093 0.0056627076 -0.03035241
-0.06931589 0.03921043 -0.008380643 -0.060799748 -0.11741868 -0.093520164 -0.032422505 0.009657855
-0.06323573 -0.04167248 -0.014711669 -0.021562075 -0.01096954 -0.015334514 -0.0836408 -0.074637055
-0.019619672 -0.09279465 -0.02202157 -0.051589113 -0.0525941 -0.1376337 -0.09534945 -0.124378584
-0.023829168 -0.04951797 -0.18583256 -0.008648448 -0.0008862958 -0.13964844 -0.10708351 -0.07442018
-0.13533814 -0.00748176 -0.09036994 -0.06283871 -0.016146587 -0.25793228 -0.08677122 0.016879017
-0.19759084 -0.06576605 -0.03359667 -0.10411931 -0.08986028 -0.085314825 -0.07844875 -0.036656357
-0.03005456 0.023495004 -0.0034539225 -0.049421817 -0.027026191 -0.08903614 -0.059059605 -0.11465272
-0.043397766 -0.03323698 -0.02011191 -0.0567379 -0.08813428 -0.025400091 -0.047970284 -0.1324626
-0.015144864 -0.03201126 0.0018366441 -0.031486034 -0.070693545 -0.071237974 -0.14264823 -0.04838639
-0.109002575 -0.010571899 0.054973193 -0.036674965 -0.0270537 -0.017635264 -0.027385369 -0.05339726
-0.12751348 -0.0085004475 -0.116705745 -0.1301482 -0.0693313 -0.018194532 -0.060716808 -0.059805952
-0.20559834 -0.11145084 0.009960773 -0.09905098 0.010384537 -0.035599038 -0.015611788 -0.09385094
-0.057749175 -0.17234157 -0.012716361 -0.07606052 0.01065606 -0.024186626 -0.033060398 -0.091530874
-0.030724557 -0.010345089 -0.012257716 -0.03629599 -0.07026574 -0.0025384093 -0.006652378 -0.025444683
0.009564362 -0.044458568 -0.03558493 -0.08724321 -0.021142634 -0.0396321 -0.048993826 -0.033609513
-0.050930258 -0.0621044 -0.14609675 -0.05186795 -0.04223798 -0.001877966 -0.09060619 0.008742438
0.03770367 -0.13036978 -0.04497538 0.01942471 -0.115875736 -0.09603069 0.05158088 -0.0018281802
-0.011176302 -0.033727076 -0.090426244 -0.08689962 0.004434019 -0.14263631 -0.040872432 -0.03878484
-0.10390829 -0.0688157 0.00044733688 -0.046345674 -0.032915074 -0.044026796 -0.07029339 -0.0028142831
-0.009442505 -0.021891823 -0.06182341 -0.085149325 -0.24587655 -0.06691908 -0.026963893 -0.024322713
-0.058794614 -0.07252213 -0.017853478 -0.02748435 0.0552853 -0.07057889 -0.07503661 -0.058396515
-0.092608 -0.04488359 -0.1076876 -0.07393734 0.010979281 0.0026578547 -0.043376695 -0.04110896
-0.023769708 0.016657809 0.019367281 -0.055044137 -0.07958553 -0.06234558 -0.025367245 -0.014116543
-0.059431795 -0.03108071 -0.0122517245 0.0064558503 -0.09438794 -0.08771162 -0.04931631 -0.05409617
-0.08855578 0.0007738238 -0.009809568 -0.0021781814 0.008056952 -0.03230436 -0.07169641 -0.0019740353
-0.05598238 -0.001417348 -0.008705033 -0.08205418 0.031576626 -0.005304998 -0.07034617 -0.10561901
-0.07772074 -0.07256993 -0.09259334 0.03185144 -0.011378617 -0.094920695 0.04391455 -0.047028128
-0.026476013 -0.057652876 -0.07624876 -0.05648705 -0.06585402 -0.002317859 -0.07975015 -0.055754017

weight f4 [128, 256]
00000000: 9797 13be df33 17be 13e6 63be 362f ff3b
00000010: 8dda 98bd cc52 583c 5d0f cdbc bdeb 0f3d
00000020: ec8e 80be 7a14 0cbe 2594 413b 5c8b 18bd
00000030: 1cf5 81bd cad1 95bd 9eb0 053e d2e2 a13d
00000040: 9b4a 09bd 0e06 1abe ed84 5e3d 1c50 35bc
00000050: 7643 96ba 7fac 5fbd 2889 563c 74cb a1bc
00000060: ac12 54bc 0068 073d e1f6 1f3c aa85 12be
00000070: c6af 3e3c 44e4 ce3c 342d 043b 48fa 0f3e
00000080: a692 60bc 1356 ff3d 1c1b 1f3d 2417 88bd
00000090: c1e2 10be 9c80 cbbc 5fb8 5b3d 2c9b 4abe
000000a0: bd2e 1bbe 52ee 8e3d 7e14 d4bd 17df adbd
000000b0: cb55 72bd 7ef0 db3d 2a9a 87bd 5b02 88bc
000000c0: 019a 84bd 5693 19be d80c 0fbe d1fe e8bd
000000d0: 18e2 7d3c 657c febd f72d 26be d392 2abe
000000e0: 9703 cbbd aaa5 0abe 02d3 d4bd 4b9b 8cbd
000000f0: f9ab 8ebe 734f 97be deed edbd fac4 9f3d
00000100: 0608 d0bd 546b 1cbd 3322 1bbd bdd5 95bd
00000110: c65a 82bd 7c56 7ebc 8643 82be 82f6 953d
00000120: 3663 37be bae6 3c3d 2955 37bd 1715 c43b
00000130: 8b28 65bd da16 08bd 035f 39bd 2d8e 3cbb
00000140: 59db ea3d 3259 853d e986 003c ed33 9abc
00000150: 33ed 40bc 558c c6be 3111 6d3c d87a 4c3d
00000160: fd8f 1bbe 322c 85bd eeaf a0bd 30e5 aabb
00000170: f228 8dbd e608 273c 0b6f 4e3d 62c6 fc3d
00000180: 78b6 b83c 0a5f 2cbd 3d1e 7bbd 0adb 88bd
00000190: d65f 8e3d 5aec 01be bca7 d8bc eb1d 8cbd
000001a0: 4faf abbe 3677 843d bada f33c bc26 86bd
000001b0: ad2e ccbc 6fd0 3dbd 057b f4bc 028e 7dbd
000001c0: 89dc cabd 5223 943a d454 15be f236 1b3d
000001d0: bb6c 25bd 8b34 283b ba5b 10be d583 d73c
000001e0: da85 17be 3e50 85be f471 c43b bb9f 22bd
000001f0: a96a 68bd e9e5 d03d 9e6b 7fbd 2486 15be
00000200: 9b91 1bbe a9af 82bc 09f7 98bd 167c babd
00000210: 1ef2 693d 5402 113e a6c2 833d d5d8 cb3d
00000220: c063 d1bd 5461 d2bd 7522 d83d 9eef 8abd
00000230: 4758 cabd dca7 303e 3fed 873d 4b7f 06bd
00000240: c386 13ba f83e 683c 88a1 73be 9397 57bd
00000250: 1b13 8b3c 7d2e 363d 9298 8f3d cbbe 06be
00000260: 2920 883d da2d 44bd 525a 36bb 9410 363d
00000270: 3ece fe3c 6e5c debb 45b3 4bba 4e91 b9bd
00000280: 0c07 6c3d 07a2 b1bd de9d 9bbd 2191 e23b
00000290: 1fc9 c4bc fed2 8a3d ffea 22be 71b8 2bbe
000002a0: 0244 f03c c1dd e53d 16f1 1a3d 9b2a 3fbd
000002b0: 8355 e93d 493e 0c3d 18eb bebc d8f3 e13d
000002c0: bbc9 25be 7ccf 00be da6b 083e 5ea3 29be
000002d0: c81f 0a3d 99a4 36be f353 0e3d be54 e4bd
000002e0: e41f a8bd b2be 793d 7b2b 733d dafe 78bd
000002f0: 0616 a9be b857 7b3c d457 b7ba d921 f8bd
00000300: 6dcc 26be c413 e0bc 1d27 a8bd c34e 8a3c
00000310: 9d7a b2be 3541 f1bd 92a5 31bd f62b abbc
00000320: b66b 51bd 5c23 47bd d738 44bd db30 bd39
00000330: c2e1 0cbb abef d7bc 5017 d9bd c006 6c3d
00000340: d49b e93c 597e 23bd f226 1ebe 1971 42be
00000350: b732 553d a515 bcbd 6a95 47be 9e08 1abd
00000360: 74bc 93be 194a ab3d 0136 f33d cea7 d83a
00000370: 7c34 6dbe 3e94 3abc bf20 3c3c 955f a53d
00000380: dd05 90be 6405 92bb 5939 3abe 697b 9c3d
00000390: 90b2 223d 422a 493d 2bf2 f13c f7ca d03c
000003a0: 0b6c 4bbe 1025 5cbd df3a 4b3d ea4a 8b3d
000003b0: 20c6 d63c 37ca a83d 3a07 953c b74d f7bd
000003c0: be70 343d e099 21be f353 42be 973d bf3d
000003d0: db78 91bd 2167 7ebd cb32 033d 0e59 013d
000003e0: 17c8 4fbd 6bea 87be 5c4e 0cbe 328c 6f3d
000003f0: f1b1 27bd 50da 0e3c bf3f 51be 4335 87bd
-0.14413296 -0.14765881 -0.22255735 0.0077876104 -0.0746356 0.013203334 -0.02503174 0.035136927
-0.2510904 -0.13679686 0.0029537764 -0.03724228 -0.06345579 -0.07315405 0.13055655 0.07904591
-0.033518415 -0.15041372 0.054325987 -0.011066463 -0.0011464197 -0.054607864 0.013094224 -0.019750334
-0.012943905 0.033058167 0.00976345 -0.14308801 0.011638587 0.02525533 0.0020168545 0.14060318
-0.013706839 0.12467589 0.038844213 -0.06645039 -0.14149 -0.0248416 0.053642627 -0.19785756
-0.15154548 0.0697905 -0.10355471 -0.08489817 -0.05916385 0.107392296 -0.06621201 -0.016602686
-0.064746864 -0.1499761 -0.13969743 -0.11376727 0.0154957995 -0.1242607 -0.16228472 -0.16657571
-0.09912794 -0.13539758 -0.10391809 -0.06865557 -0.2786558 -0.29552802 -0.11617635 0.07801242
-0.1015778 -0.038188294 -0.03787441 -0.07316158 -0.0636497 -0.015523549 -0.2544214 0.07322408
-0.1790894 0.046118475 -0.04475895 0.0059839594 -0.055946868 -0.033224918 -0.045256626 -0.0028771267
0.114676185 0.06511153 0.007844665 -0.018823588 -0.011775303 -0.3877894 0.014469431 0.04992184
-0.15191646 -0.0650257 -0.07846056 -0.0052153096 -0.06892575 0.010194993 0.050398868 0.12342526
0.022547945 -0.042082824 -0.061308134 -0.066824034 0.06951873 -0.12687817 -0.02644717 -0.06841644
-0.33532187 0.0646805 0.029767383 -0.06550357 -0.0249246 -0.046341356 -0.029843817 -0.061903007
-0.09905345 0.001130203 -0.1458314 0.037894197 -0.040386897 0.0025666084 -0.14097491 0.02630798
-0.14797154 -0.26037782 0.0059950296 -0.039703112 -0.056742344 0.10200102 -0.06235849 -0.14601952
-0.15192263 -0.015952902 -0.07468993 -0.09105699 0.057115667 0.14161044 0.064336106 0.09953467
-0.10224104 -0.1027247 0.10553447 -0.067839846 -0.09880119 0.17251533 0.06637048 -0.03283624
-0.0005627686 0.014175169 -0.23792088 -0.052634787 0.016976884 0.04447793 0.07011522 -0.13158719
0.06646759 -0.04789529 -0.0027824831 0.044449404 0.031104203 -0.006785921 -0.00077705487 -0.09060918
0.057623908 -0.086734824 -0.0759847 0.0069142734 -0.024021683 0.06778525 -0.15909956 -0.16769578
0.029329304 0.11223937 0.037827574 -0.04667149 0.11393263 0.034239087 -0.02330546 0.11032838
-0.16190235 -0.12579149 0.13322392 -0.16566226 0.033721715 -0.17836227 0.03474803 -0.11148976
-0.08209208 0.060972877 0.059367638 -0.06078992 -0.33024615 0.015340738 -0.0013987967 -0.12115831
-0.1628892 -0.027353175 -0.08210585 0.01688326 -0.34859172 -0.117800154 -0.04337079 -0.020894986
-0.05112811 -0.048617706 -0.04790577 0.0003608529 -0.0021496867 -0.0263594 -0.1060015 0.057623625
0.028516687 -0.039915416 -0.15444544 -0.18988456 0.05205032 -0.09183816 -0.1949059 -0.037605874
-0.28854716 0.083637424 0.11875535 0.0016529502 -0.23164552 -0.011387883 0.011482417 0.080748715
-0.28129473 -0.004456209 -0.18185939 0.07640726 0.03972107 0.049112566 0.02953442 0.025487406
-0.19865434 -0.053746283 0.04961669 0.06801398 0.02621752 0.082416944 0.018191922 -0.1207537
0.04405283 -0.15781355 -0.18977337 0.09337919 -0.071031295 -0.06211007 0.03203086 0.03157907
-0.05072793 -0.26546034 -0.13701767 0.05848331 -0.040941183 0.008719042 -0.20434473 -0.06601956

bias f4 [128]
00000000: 53da 36bd 1f87 863d 7e89 e8bb 656f 22bd
00000010: 4dfe 86bd 779c c0bc 3797 2dbd 8726 70bd
00000020: 1132 393c 4eca febd 668b abbd becb 0ebd
00000030: 9069 0bbd 1a73 f5bd ddb2 9ebd acf4 86bd
00000040: 0d51 68bd d092 4e3d a799 dcbd e20c d7bc
00000050: f306 453c 3ad5 d33c f26b dabc 6385 a5bd
00000060: d917 40bd 6b75 613c 8d57 0d3c ae04 0cbd
00000070: ddc0 333d 4100 7ebb 6954 55be 0c69 533c
00000080: 93c2 22bc 5030 1abd 8835 7c3d c385 e63c
00000090: 06c3 a6bd 5915 05be bb7f 44bd e902 0dbb
000000a0: 2349 9dbd 96c8 9fbd f1a1 033b 417b 3fbe
000000b0: ae9d 62bd ee95 5abb ef5d 72bd 38ca a83d
000000c0: f7ea ddb9 3817 3dbd 361d 7b3c 5ff1 bfbc
000000d0: 2a78 8c3d 6a63 873d 8679 85bd 23d3 c6bd
000000e0: 2c8e 8ebd 0438 22be 86d5 3abd b788 b9bc
000000f0: bae0 d3bc e69f 3bbd 5d86 173d 4d47 67bd
00000100: 00ae 9e3c 81e5 193c 0a2a b9bd 857c 4fbd
00000110: e600 07bd adac 49bd a418 24be bbb8 1c3b
00000120: ebaa 4d3d 6cc0 30bc 82d5 48bd 01ec 45bc
00000130: f3f1 d03c 761f 21be ebab 81bd e249 46be
00000140: efb4 3abc eb64 a9bd 203d 6f3d 2332 09bd
00000150: ad1f 2dbd c11f a2bc bdc4 c13c be14 0cbd
00000160: 8a15 41bd bbb7 75bd eedf 18bd 8fb6 44bc
00000170: b7d4 c53c 24c8 bbbd 6b9e ddbd 1757 ffbd
00000180: 6fea b83c aeba 6fbd f4d3 09bd 1417 efbd
00000190: 0aec 11be d380 e4bc 988d 64bd 92c6 90bd
000001a0: a992 603b b06b 883c 806f 97bb cc19 8f3d
000001b0: 588d 8cbb 836e e4bc a0ee c5bd b19b 12bd
000001c0: 4c38 01be e2cc e4bd 4732 92bd 7996 5fbd
000001d0: d487 653d c56f dbbc 9903 04be 3498 c7bc
000001e0: 9837 1cbd 2510 e7bc 7c2c eebd 552e b53c
000001f0: 95f5 f6bd 03c2 e5bc 6f1a 7fbd 4437 85bd
-0.044641804 0.06568741 -0.0070964685 -0.039657015 -0.06591473 -0.023512108 -0.042380538 -0.058630493
0.011303441 -0.1244093 -0.083761975 -0.034862272 -0.03403622 -0.119848445 -0.07748959 -0.06589636
-0.05671792 0.05043298 -0.10771494 -0.02625126 0.012025583 0.02585851 -0.0266628 -0.08082082
-0.046897743 0.013760905 0.008626831 -0.03418415 0.0438851 -0.0038757476 -0.20832981 0.012903463
-0.009934085 -0.03764373 0.06157449 0.028139954 -0.081426665 -0.12996425 -0.047973376 -0.0021516627
-0.07679965 -0.078019306 0.0020085538 -0.18699361 -0.055326156 -0.0033353525 -0.059171613 0.08241695
-0.00042327467 -0.04616472 0.015326789 -0.023430524 0.06858857 0.066107586 -0.065173194 -0.0970824
-0.06960711 -0.15841681 -0.045613788 -0.022648199 -0.025863994 -0.045806788 0.036993373 -0.056464482
0.019370079 0.009393097 -0.090412214 -0.05065586 -0.03295984 -0.049236942 -0.16025025 0.002391382
0.05021183 -0.010788064 -0.049031742 -0.0120801935 0.025505995 -0.15734658 -0.06331619 -0.19364122
-0.011395677 -0.08271202 0.058407903 -0.03349508 -0.042266537 -0.019790532 0.023653382 -0.03419947
-0.047139682 -0.059989672 -0.03732293 -0.012006416 0.024149282 -0.09169033 -0.108212315 -0.12467783
0.022572724 -0.05852764 -0.0336494 -0.11674324 -0.14250198 -0.02789346 -0.055799097 -0.07069124
0.0034267104 0.016652912 -0.004621446 0.06987342 -0.0042893104 -0.027884727 -0.09664655 -0.03579301
-0.12619132 -0.11171891 -0.07138496 -0.05458686 0.05603774 -0.026786694 -0.12891997 -0.024364568
-0.038138956 -0.02820594 -0.116295785 0.02211682 -0.1205856 -0.028046614 -0.06228107 -0.06504682

weight f4 [6, 128]
00000000: 62e0 fcbc d6cb 79bb ead9 453c 2d6f e63b
00000010: fe98 e1bd ffe3 3e3d 5fd1 84bd 70f8 1e3c
00000020: 19aa 683c 0fcc b2bd 356b c2bd 8d93 dcbb
00000030: ed9f 1a3e 6732 0a3d 5321 7b3d a1ad 1d3e
00000040: baf6 72bc 0a59 00be b00a 0abd f858 4039
00000050: 0693 7dbd 1565 88bd 3fdb acbd a674 79bc
00000060: 79b7 c63d 06fa 44bd 6e18 f4bc 7584 853d
00000070: 9ebb aabd d094 5e3d 23b4 613d 297b 4f3d
00000080: eb9b e6bd b4d3 36bd 7142 143d 1a2d fcbd
00000090: f28f 443c e866 f03d 03a8 8e3d 7301 673c
000000a0: 3891 603b 8aff 233c 3244 f1bb 6547 90bd
000000b0: 8f1c fa3b 0906 f2bc 6489 21bd 15b3 4dbe
000000c0: 33b5 97bc b604 c03b aa5a 883c 8e8d 5cbc
000000d0: b607 e4bd 3e75 a4bd 9a0d 2cbe abac 8d3d
000000e0: 5e61 77bb 6132 2d3e e98c a53d e300 383d
000000f0: fc01 fd3d a3bd 7dbc e624 7abc fc73 aa3c
00000100: 50be a6bd 2d37 c1bb 3cf1 613b 40be 38be
00000110: 0bf1 5f3d 0d21 6a3d 452a ea3c d5bf 38bc
00000120: 8a7a 1cbd 0a79 983d 3493 c5bd b8d1 5f3e
00000130: dc0d 033d 5edf dbbc 6b06 5d3d be9f d5bd
00000140: 957f 5f3c d176 49bc 0d5c a4bc f384 d7bd
00000150: c55b d4bc d2ac 783c 83e6 193d 372a 13bd
00000160: 0520 9a3c 0def 3f3d 8c86 353d 1a71 8dbb
00000170: bb05 bc3d f8cb 633c 6a49 b33c ca9d 0bbb
00000180: 20e6 c43c e686 763c 6ed4 9a3d 5cb8 d73a
00000190: 5db5 b23d 3f38 263c b79f 4e3d b9ee fd3d
000001a0: 7130 32bd 8a51 16bd a2e4 b8bc b0ff 53be
000001b0: 8b01 d5bd ccf0 d53d 6f71 dabc 9ecd a8bd
000001c0: 5bae 053c d64d fdbd 89ec 47bc 783d 35bd
000001d0: 0c0d 08bc be33 863d 6a2c 10bc 87e6 b7bc
000001e0: 1fbf a4bd bde0 49bd 2c31 143d 771a 96bc
000001f0: 7514 e83c 7759 b93d a29c 353c e800 a93b
00000200: 5181 d9bd b774 a0bd 6a10 e8bc 04bc a93d
00000210: 2e8e c53b a8af ccbc 8578 15bd 16ce 86bd
00000220: 16d6 143d 7bc6 9fbd c3c7 843d ee14 b73d
00000230: 7c0c 123d 8ae7 25bd 20a9 9ebd 29a9 333e
00000240: 3992 28bb bb5b 0b3e 3479 a8bd 36a9 283d
00000250: e00e 423d b12e 5d3d f1d8 d9bc b838 1dbd
00000260: 4129 70bd 0f94 a93c 0c52 a4bd 3b0d 1cbd
00000270: 8394 f13c 6358 8b3d dd5d 26be 9e3d d53c
00000280: c06d d63d 588c 293c 6a45 323e c76c b33d
00000290: 4b65 42bd 8308 3d3d c23a 0fbe 9d04 c23d
000002a0: d5c6 d43c c74c dc3c dd8e 0bbe 1c27 d1bc
000002b0: ed62 43bc 999e 5d3d d689 15bd 6d18 c83c
000002c0: 888f 533d d1ac 65bd 7e06 eebd f05a debd
000002d0: e617 e7bd 7963 7abe ac09 fd3d c37a 75bc
000002e0: 175b 57be 5e9c ccbd cfc3 893d 4f6d 423e
000002f0: 5435 e7bc c575 4fbd ddfb 5f3c 7e36 17be
00000300: 6b8d 833d b046 adbb 2759 e5ba 6dd8 69be
00000310: 333b bebd c6f1 bcbd f50a cd3d 50e4 db3b
00000320: 5eff 503d 275a c0bc 97bb edbd 8c0b d03c
00000330: 3cd0 f73c bc69 99bd 2915 ffbd c2e2 24bc
00000340: 303f 563c e334 89bd d79a b23c f519 f7bd
00000350: fe22 123e 5f69 bbbc 6f55 093e 8b36 26be
00000360: e1f5 a5bc d5b4 87bc ee77 803b 22a7 883d
00000370: 3e3f 4d3c 0170 c8bc de0d 1f3d cdaf febb
00000380: 2740 afbd 22f0 c8bd 75a3 91bd 77d7 e73d
00000390: d9e2 9ab7 1598 aa3d dabd 1b3d 48ef be3c
000003a0: 406e 8c3d 6717 8b3d 9b58 ea3c 9f04 0ebd
000003b0: e390 063c 584a bb3d 26ed b3bb aec5 0dbe
000003c0: 9629 4dbd b0f5 99bd 83df 853a ac49 583d
000003d0: ce80 f53c a552 9ebd fc18 b2bc 88ac 2abd
000003e0: b1d8 2b3d d7a0 d1bd bf7d 63bd 1f86 3c3c
000003f0: 38c3 7c3d a0b2 aa3c cfe9 29bd d1f8 4d3c
-0.030868713 -0.003811588 0.012075881 0.007032296 -0.11015509 0.046604153 -0.06485247 0.009702787
0.014200711 -0.08730327 -0.09493104 -0.0067314566 0.1510007 0.033739474 0.061311077 0.15398265
-0.014829332 -0.12533966 -0.0337016 0.0001834369 -0.06190779 -0.06659905 -0.084402554 -0.015225565
0.097029634 -0.048090003 -0.029796805 0.06519405 -0.083365664 0.054341137 0.055103432 0.050654564
-0.11260208 -0.04463549 0.036196176 -0.1231329 0.01199721 0.11738378 0.069656394 0.014099467
0.0034266245 0.010009656 -0.007362866 -0.070448674 0.007632799 -0.029543893 -0.039437667 -0.20087846
-0.01851902 0.0058599366 0.016644794 -0.013461484 -0.11134283 -0.08030175 -0.16802064 0.069176994
-0.0037747244 0.1691375 0.08083517 0.04492272 0.12353894 -0.015487107 -0.015267586 0.020807259
-0.08141768 -0.00589647 0.0034476062 -0.18041325 0.054673236 0.057160426 0.028584609 -0.011276205
-0.0382028 0.07444961 -0.096472174 0.21857345 0.03199564 -0.026839908 0.0539612 -0.10430859
0.013641258 -0.012296394 -0.020063424 -0.10523405 -0.025922665 0.015177922 0.03757335 -0.03592893
0.018814096 0.046858836 0.044317767 -0.0043164613 0.091807805 0.01390361 0.021885592 -0.0021303766
0.024035513 0.015046811 0.07560049 0.0016458142 0.087259986 0.010145246 0.050445285 0.12399048
-0.04350323 -0.036698855 -0.022569958 -0.20703006 -0.10400685 0.10446319 -0.026665417 -0.08242343
0.008159245 -0.12368362 -0.0122023905 -0.044248074 -0.008303892 0.06552838 -0.008799652 -0.022448791
-0.08044266 -0.049286593 0.036179706 -0.018323166 0.028330067 0.09050267 0.011084707 0.0051575787
-0.10620368 -0.078347616 -0.02832814 0.08287814 0.006028912 -0.024986103 -0.03649189 -0.065822765
0.03633698 -0.07801529 0.06483414 0.08939539 0.035656437 -0.040504016 -0.07747102 0.17544998
-0.002572192 0.13609211 -0.08226243 0.041176997 0.047377467 0.053999607 -0.026592704 -0.03838417
-0.058633093 0.020700483 -0.08023462 -0.038098555 0.029489761 0.06803968 -0.16246744 0.026030358
0.10470152 0.010348402 0.17409292 0.08760982 -0.04745988 0.046150696 -0.13987258 0.09473536
0.025973717 0.026892079 -0.13628717 -0.025531344 -0.011925441 0.05410633 -0.036508404 0.02442571
0.051650554 -0.056073014 -0.11622332 -0.10857189 -0.11283855 -0.24452008 0.123553604 -0.014982882
-0.21030842 -0.09990762 0.06726801 0.1898701 -0.028223671 -0.050649423 0.013670889 -0.14766881
0.06423458 -0.0052879676 -0.0017497883 -0.22836466 -0.09288635 -0.09225802 0.100118555 0.0067105666
0.051024787 -0.023480488 -0.116080455 0.025396131 0.030250661 -0.0749087 -0.12455208 -0.010063829
0.0130765885 -0.066995405 0.021802349 -0.12065498 0.14271161 -0.022877393 0.13411497 -0.16231744
-0.020258846 -0.01656572 0.0039205467 0.06672503 0.012527285 -0.02446747 0.038831584 -0.007772422
-0.08557158 -0.09811427 -0.07111255 0.113203935 -1.8463865e-05 0.083297886 0.038022853 0.023307458
0.06856966 0.06791573 0.028606704 -0.034672376 0.008213255 0.09145039 -0.005490917 -0.1384494
-0.050088488 -0.07517564 0.0010213706 0.052804634 0.029968645 -0.07730607 -0.02174043 -0.041668445
0.0419547 -0.10235756 -0.055539843 0.011506586 0.061709613 0.020837128 -0.041482743 0.0125715295

bias f4 [6]
00000000: 217a 73bd 18d7 293e 8c35 4dbd 1d22 d0bc
00000010: 9c9f 213e 6fce c83d
-0.059442643 0.16585958 -0.050099894 -0.025406891 0.15783542 0.09804999
